models/entailment.model (torch, 163347 bytes, 4 tensors)

0.weight f4 [100, 400]
000000 5b 3c f4 3d b4 c7 3e 3f 83 f2 d4 3d a4 15 cc 3c
       0.119255744 0.7452347 0.10397818 0.024912663
000010 80 3e 1b 3e ca b5 65 bd 6b d5 94 3e ac bd e0 3e
       0.1516056 -0.05608157 0.29069075 0.43894708
000020 84 4c 0f 3e 03 c9 dc 3e ef f4 c1 3e 3a ad 33 3e
       0.13994032 0.4312211 0.37882182 0.1754655
000030 6e 9d d5 3c 85 f4 ab 3e 8e 75 8a be b4 5c 88 bd
       0.026076045 0.3358499 -0.27042812 -0.06658307
000040 42 fc 77 be 00 98 cb bd b1 01 63 be 21 30 a4 be
       -0.24217322 -0.09941101 -0.22168614 -0.3206797
000050 33 60 85 3e 96 34 7c be cf 2d b6 3d db 9f 08 be
       0.26049957 -0.24629435 0.08895456 -0.1334223
000060 d7 25 05 3f 0b 14 a5 bd a7 0c 1d be a3 48 7b 3d
       0.52010864 -0.080604635 -0.15336858 0.06134857
000070 18 4c 97 3c cd cf 30 3e c8 9a 7b 3c 1f 76 5a be
       0.018468902 0.1726677 0.015356727 -0.21334122
000080 22 bf f7 bd 27 0d d4 ba ca fe 98 be 53 0a ce 3e
       -0.120970026 -0.0016178236 -0.2988189 0.40242252
000090 06 1e 71 be c9 79 c4 be c6 54 3a bd 4d 83 8d 3c
       -0.2354661 -0.38374165 -0.045491003 0.017274523
0000a0 fa 3b 5b be ce 1a 93 3d c9 eb 07 3e a7 47 12 3e
       -0.21409598 0.07182847 0.13273539 0.14285146
0000b0 2a f7 c9 bd 70 da 42 be 4a 30 03 3e f1 db e8 3d
       -0.09861596 -0.1902864 0.1281139 0.113700755
0000c0 84 cd b9 3c 9e 66 ce bd 61 3b 0a 3e 59 aa 0c bf
       0.022681005 -0.100781664 0.13499214 -0.5494743
0000d0 09 66 02 bd f9 48 c6 bd 63 70 91 3e 33 20 29 bb
       -0.03183559 -0.09681887 0.28406057 -0.0025806546
0000e0 57 5b 95 3d bd 9d 3d be c2 77 86 3e 42 fe 0d be
       0.07292812 -0.18517204 0.26263243 -0.13866523
0000f0 5b ab 95 3e 8f 5d 54 3d c7 19 e9 bd b5 de ba 3c
       0.29232296 0.051847037 -0.1138187 0.022811273
000100 bf 98 23 3d 8e f9 2d 3e 0a 84 d6 3d 7f 1e 3d bd
       0.039940592 0.16989729 0.10474403 -0.04617166
000110 8a 50 5c 3e c3 4a 2a be a8 88 04 be 0e e9 58 be
       0.21515098 -0.16630082 -0.12942755 -0.21182653
000120 e8 f5 86 3d dd f8 c3 3d 8a 5f 53 3d 10 f9 0b be
       0.06589872 0.09568951 0.051604785 -0.13669229
000130 95 1e a5 3b 09 d1 42 bd 3b 72 1b bf d9 d3 3c 3e
       0.005039046 -0.047562633 -0.60721177 0.18440188
000140 ae c9 98 bc d0 2b d6 bd c2 e6 23 be a7 b5 4e 3d
       -0.018650856 -0.10457575 -0.16005996 0.050466206
000150 78 b5 05 3f 82 03 9e be 50 cb b9 bb 0c 89 19 3e
       0.52230024 -0.3086205 -0.0056699887 0.14993685
000160 8c 10 31 3d fc 90 7e be 2d 55 00 be 69 44 ec 3d
       0.04322867 -0.24859995 -0.12532492 0.11536486
000170 27 af 89 3e 14 ae 55 bd 19 66 16 3b cf 3b a2 3e
       0.26891443 -0.052167967 0.0022949039 0.31686255
000180 07 9b 67 bd aa d4 a9 3e bd 1b 3b 3e 97 5f ea 3b
       -0.05654433 0.33170062 0.182723 0.0071525085
000190 03 06 81 3d bb 22 c3 bd f4 b5 94 be b0 ac b0 3d
       0.06299975 -0.09528109 -0.2904507 0.086266875
0001a0 3e 08 e0 bd 27 22 02 be f1 e2 8c bc fc 22 a6 be
       -0.10939072 -0.1270834 -0.017198058 -0.32448566
0001b0 6d 0d 05 bc 3d a9 c4 3d 63 cf 12 3e 1a aa 07 be
       -0.008120877 0.09602592 0.14336924 -0.13248482
0001c0 b0 01 1c bd f7 f7 aa be 8b b0 96 bc 55 94 31 3c
       -0.038087547 -0.33392307 -0.01839473 0.010838588
0001d0 b0 96 28 be c8 bc 1b be 4a a0 15 bd 3f 9b db be
       -0.16463733 -0.15208733 -0.036529817 -0.4289188
0001e0 6a 5e 90 3d a7 69 bf 3d 11 2f 08 be 20 d6 23 3c
       0.07049258 0.093463235 -0.13299204 0.009999782
0001f0 b5 4a e2 bd 06 be b1 bd 8c df 98 be 16 d3 c2 bd
       -0.110494055 -0.08678822 -0.29858053 -0.09512918
000200 4f 73 c1 bd c5 d0 55 bd 8a 76 8e be 8e 07 86 be
       -0.094458215 -0.05220105 -0.27824813 -0.2617764
000210 1e ce 00 be a1 3e 33 bd ed 5d 99 3e 3a d9 53 bd
       -0.12578627 -0.0437609 0.29954472 -0.051720835
000220 e3 50 a2 3d 53 61 1d 3e 02 e3 08 be 56 fe 9d be
       0.07925584 0.15369157 -0.13367847 -0.30858105
000230 a9 5a e7 bc 47 03 85 bd 20 56 9f bd 2f a6 0c 3e
       -0.028241472 -0.06494766 -0.07780099 0.13735269
000240 96 f7 48 3d f6 5e b6 3e 8c e9 f8 3d 0f df 4c be
       0.04906424 0.35619324 0.121539205 -0.20006965
000250 71 51 10 3d 6a ae b8 bd 1b 0a 13 be f8 4e 0f 3d
       0.03523392 -0.09017642 -0.14359324 0.03498742
000260 55 7f 0b bd e1 bd 58 be 6d 04 81 bc b0 8b 36 3c
       -0.03405698 -0.21166183 -0.01574918 0.0111417025
000270 a1 4d bf bd 46 18 bd bd 4e e1 f8 3c e5 7e ad be
       -0.093409784 -0.092331454 0.030380871 -0.33885875
000280 de b6 87 be 73 c2 f7 be f1 a9 0d be 09 a5 9d bd
       -0.26506704 -0.4839054 -0.13834359 -0.076974936
000290 ba 48 54 3e 29 89 b5 bc 83 43 ad be bc 32 1d 3e
       0.20730868 -0.02216013 -0.3384057 0.15351385
0002a0 1b 33 ad be e2 c5 35 be 69 47 3b bd 9b b0 2f 3e
       -0.33828053 -0.17751268 -0.0457224 0.17157213
0002b0 f1 a8 2c be 27 69 30 be 92 da d4 bd ff 36 09 bd
       -0.16861321 -0.17227612 -0.103932515 -0.033499714
0002c0 f6 94 9c bd d7 ae 9e 3d 75 a7 65 be e3 65 9d 3d
       -0.076455995 0.07748192 -0.22427161 0.07685449
0002d0 70 b2 d9 bc a9 0e ca bd f6 c1 b9 3a 97 dd 97 be
       -0.026574343 -0.098660775 0.0014172185 -0.29661247
0002e0 1e 60 01 bd 46 81 a3 bd bd 7d 93 be 8f 53 4d be
       -0.031585805 -0.07983641 -0.28806868 -0.20051406
0002f0 d6 a5 12 3e 54 44 81 3e 91 e6 99 bd f7 1c 6a bd
       0.14321074 0.25247443 -0.0751468 -0.05715653
000300 f5 88 42 bd c6 5d 8d bd 2b de b7 3e be 71 11 be
       -0.047493894 -0.069026515 0.35911688 -0.14203545
000310 d0 df 8f 3e e0 70 4b 3e c9 67 d3 3a 08 e5 75 3d
       0.28100443 0.19867277 0.0016128953 0.060032874
000320 af a3 85 3e 1a 45 b0 3e fe 14 08 3d 10 58 9e be
       0.26101443 0.3442772 0.033223145 -0.3092656
000330 d1 86 0e 3f 60 33 4f 3d 3b 9f 36 3f a5 69 bc be
       0.55674464 0.050586104 0.71336716 -0.3679935
000340 e9 29 09 bf 96 fe ff 3e 3f aa 86 3e f5 87 5f 3e
       -0.53579575 0.4999892 0.26301762 0.21829207
000350 b6 36 15 3e 19 9d bd 3e ad 40 78 be 72 96 5a 3e
       0.14571652 0.37033918 -0.24243422 0.21346453
000360 eb 82 14 be bc c2 08 bd e0 03 b3 3d fc 70 17 3e
       -0.14503066 -0.03338884 0.087409735 0.14789194
000370 b1 aa cc 3e 9f a6 ee be 22 9b e3 bd 25 e5 3b be
       0.39973977 -0.46611497 -0.111135736 -0.1834913
000380 ad df 9e 3e e4 4c 9a bd 71 9f c5 3d 35 12 c5 be
       0.31030026 -0.07534197 0.09649552 -0.38490453
000390 53 34 7e 3c 8d b8 28 3c f2 05 15 be 28 0a a2 3d
       0.015515405 0.010297907 -0.14553049 0.079120934
0003a0 d5 20 9d 3d 10 84 26 3e 5f 4f 1d bf 9f 2a 5b 3e
       0.07672278 0.16261315 -0.61449236 0.21402977
0003b0 c3 fc 54 3d 91 9e 28 3e a4 50 e7 be 80 6f 40 be
       0.051998865 0.16466738 -0.4517871 -0.18792534
0003c0 14 38 ff 3c 00 86 85 3c 7a 5c 50 3e 92 87 68 be
       0.03115467 0.016299248 0.20347777 -0.22707966
0003d0 0d b8 46 3b bf 02 3c 3e 1c da af be c6 eb 82 3d
       0.0030322105 0.18360423 -0.34346092 0.063926265
0003e0 33 6b 9c 3e 39 47 23 3e 43 42 e5 3e d6 79 f7 3d
       0.30550537 0.15945138 0.44777116 0.12083785
0003f0 04 6b 05 bd cd 25 9b be 14 cb 37 3f 4c 7b c1 3d
       -0.03257276 -0.30302277 0.7179425 0.09447345

0.bias f4 [100]
000000 63 31 ae be 30 bc 25 bd 03 9d 67 bd df 70 9f be
       -0.34022054 -0.040462673 -0.056546222 -0.311408
000010 54 4c f5 3d 0f 5a 05 be 45 bb ba bd 1b 9d b8 3d
       0.11977449 -0.13022636 -0.0911775 0.090143405
000020 19 b8 9a 3e ce b9 af bc 11 39 b3 3e 7f ab ad 3e
       0.3021858 -0.021450903 0.35004476 0.33919904
000030 aa b8 8c bd af c5 a9 3e 5c 40 84 be 1b 0f 0e be
       -0.068711594 0.33158633 -0.25830352 -0.1387295
000040 da 31 dd 3d cb 64 3a bd be c2 73 3c 18 f2 6f bd
       0.10800524 -0.04550628 0.014877973 -0.058580488
000050 4f aa 38 be 9e 45 a5 3e 90 13 da bd 19 cd 63 bd
       -0.18033718 0.32279676 -0.106482625 -0.05561552
000060 22 56 b9 bc 15 76 4a 3e 64 14 39 3e fe 0a 43 3e
       -0.02262408 0.19771607 0.18074185 0.19047162
000070 07 28 4e 3e a4 57 fa bb ee a2 97 be 22 c9 26 3d
       0.20132457 -0.007639842 -0.29616493 0.04071916
000080 8c c0 c0 bc bc 23 cf 3d 3c 5e ad bb 08 b5 22 bd
       -0.023529314 0.10114238 -0.0052907746 -0.039723426
000090 85 05 4d 3d b4 6c e1 bd ea b6 a5 be 15 04 a1 3e
       0.050054092 -0.110070616 -0.32366115 0.31448427
0000a0 2e 20 0f 3d 9c 3b 8e bc f7 f3 bd 3b fc e5 f6 3c
       0.0349428 -0.017362408 0.005796905 0.030138962
0000b0 28 32 2a bd fe eb 87 3e b9 b1 70 3e 28 46 a8 3e
       -0.04155174 0.26547235 0.23505296 0.32866025
0000c0 7a 84 78 3e fc d2 77 be b0 29 af 3e 99 95 b7 3d
       0.24269286 -0.24201578 0.34211493 0.0896408
0000d0 06 43 57 be 20 8e 82 be ef b9 ba 3d ac 04 f4 3c
       -0.21021661 -0.25499058 0.09117495 0.029787384
0000e0 37 3a 79 bd 49 a9 2c be 6d 20 9e 3e b5 ca 82 bd
       -0.060846534 -0.16861452 0.30884114 -0.063863195
0000f0 4c 6a a2 bd 8b dc 8e 3e 02 63 b0 be 67 27 a8 3c
       -0.07930431 0.27902636 -0.34450537 0.020526601
000100 2a 6f f2 3d 24 5c 4a bd 5c 53 a2 3e 1c 26 84 be
       0.11837609 -0.04940428 0.31704223 -0.25810325
000110 94 7b 77 bd 81 d6 78 be 8d 59 8a 3b 81 c4 a1 3e
       -0.060420588 -0.24300577 0.004222101 0.31595233
000120 76 8a f2 bd bf 7f 6a bd da 21 f1 bc a8 c0 9e bd
       -0.118428156 -0.057250734 -0.029435087 -0.0775159
000130 c3 5b 28 3c 33 3f e2 3d c9 cd b3 3c 0f fe d7 ba
       0.010275784 0.110472105 0.021948712 -0.0016478914
000140 ef 44 be 3e 7b 1f 9b 3d 13 7b 16 3e a0 b5 11 3d
       0.37161967 0.07574364 0.14695387 0.0355736
000150 22 dd 89 bc c9 a8 e6 3c 62 33 a0 bd 39 ea 49 3e
       -0.016829077 0.028156655 -0.078223005 0.19718255
000160 f7 de 65 bc ff 43 0c 3b 40 67 7f 3e d2 50 34 3e
       -0.01403021 0.0021402834 0.2494173 0.17608956
000170 ac 1c a3 be d5 f1 db 3c 23 a8 a2 be 9a c3 fd 3d
       -0.31857812 0.026848713 -0.31768903 0.12390824
000180 4c 3b 5e be a6 a6 45 be ef f0 d0 3d c1 73 77 bd
       -0.21702307 -0.19301853 0.102022044 -0.060413126

2.weight f4 [3, 100]
000000 63 54 19 be 4b ab 5c bd e5 39 cc bc a1 62 81 be
       -0.14973597 -0.053874295 -0.02492995 -0.2527056
000010 6b 05 a6 3c 00 d9 92 be bd db d9 bc 5f be de 3d
       0.020266255 -0.28681183 -0.026594037 0.10876154
000020 27 f0 7a 3f 47 c6 93 bd eb 28 e2 3e 7f 78 78 3e
       0.98022693 -0.07215553 0.44171843 0.24264716
000030 6e 02 22 be 15 57 91 3e 4d d4 12 bf f7 77 49 be
       -0.1582124 0.2838675 -0.57355195 -0.19674669
000040 2d 91 52 3e e6 18 10 be ad 6e 9f bd a8 28 5b bb
       0.20563193 -0.14071998 -0.077847816 -0.003344098
000050 6f a2 3a be ea 6c b1 3e a3 03 3b be c8 29 ed bd
       -0.18226026 0.34653407 -0.18263106 -0.11580235
000060 24 2e a2 bd a3 09 2c 3e 0d e4 95 3d 24 61 0a 3e
       -0.07918957 0.16800551 0.07318888 0.13513619
000070 65 05 15 3f e7 99 71 bd 4a bc ad be 91 56 1a 3e
       0.58211356 -0.058984663 -0.33932716 0.15072085
000080 a8 4a 61 3f eb 78 af 3d 51 7d 5e 3d 4a b5 82 be
       0.8800454 0.08567985 0.05431873 -0.25528938
000090 49 cb 97 3b 9f 18 06 bf 70 20 aa be 2a 21 2d 3e
       0.004632388 -0.5238132 -0.33227873 0.16907182
0000a0 f1 9b 48 3e 1f 0c 9b bd a6 e4 0f 3e 45 2b ec 3c
       0.19590737 -0.07570671 0.14052066 0.028829226
0000b0 35 76 8d bd 28 55 e1 3d 11 a6 b8 3d c7 2f 27 3f
       -0.06907312 0.110025704 0.0901605 0.6530728
0000c0 48 87 8f 3e a3 71 62 be fb f5 e4 3e c7 68 0c bd
       0.280329 -0.22113661 0.44718918 -0.03427961
0000d0 8a f7 f6 be 62 b2 89 be be 1d 97 3d 1d 90 2b 3d
       -0.48235732 -0.26893908 0.0737872 0.041885484
0000e0 5f cc 82 be b5 2b 9b be 3a 6b 76 3e b6 e3 86 3d
       -0.25546548 -0.30306783 0.24064341 0.06586401
0000f0 bf 8d b9 be d9 6a 85 3e 31 96 e1 be e0 83 34 3b
       -0.36240956 0.2605808 -0.440599 0.0027544424
000100 20 e4 c7 3d 66 81 10 bd 54 80 36 3f e7 36 06 be
       0.09760308 -0.035279654 0.71289563 -0.13106881
000110 e4 87 df bd a9 88 20 bf 5f 44 50 bd 83 4b 12 3f
       -0.10914591 -0.62708527 -0.050846454 0.5714647
000120 85 44 84 be 66 ff a1 3d c8 a8 8b bd d2 84 0c bf
       -0.25833526 0.079100415 -0.06819302 -0.5489017
000130 eb fd 2c 3c 74 43 cc bb ae 71 97 3e ff 84 aa 3c
       0.010558586 -0.006233627 0.29578918 0.02081537
000140 f3 24 0c 3f bd cf a5 3d 8a 50 ee 3d a1 17 cc bb
       0.5474388 0.080962636 0.11636455 -0.0062284027
000150 55 63 22 3c 3a 3f 50 bc a7 75 18 be fc 15 cb 3c
       0.009911378 -0.012710387 -0.14888631 0.024790756
000160 ce 5d 63 3c 76 02 8d bc 11 bb c8 3d 1e 76 4c bc
       0.013877345 -0.017213088 0.09801305 -0.012479333
000170 8e 38 61 bf 0d 5a 8c 3c 2d b7 b6 be 98 2d 11 3e
       -0.8797692 0.017132783 -0.35686627 0.14177549
000180 b8 5e ac bd 8b 90 9d be 1c 0d fa 3c bd 49 82 bd
       -0.08416504 -0.3077434 0.03052383 -0.06361721
000190 4b 43 33 3d 38 68 0e 3e 66 41 b0 bd b6 34 49 bd
       0.043765347 0.13906944 -0.08606224 -0.049122535
0001a0 3a 21 b2 3d 16 17 c7 bd 4b 30 c7 3d 73 0d 25 3e
       0.08697744 -0.097212 0.09726008 0.16118412
0001b0 79 fe 2e bf 7d b5 a8 3d dd fd fa be 4d a3 bf 3d
       -0.68357044 0.08237741 -0.49021807 0.09357319
0001c0 44 73 22 3e 96 49 75 be 10 67 68 3e db 09 0e 3f
       0.15864283 -0.23953852 0.22695565 0.5548379
0001d0 26 a6 68 bc a2 62 6c 3d 30 7d ad 3d 96 a6 1a bc
       -0.014199769 0.05771125 0.08471143 -0.009439131
0001e0 a5 41 1d bd 12 45 f5 bd 71 2a 2c bd 83 f1 72 3e
       -0.03839268 -0.11976065 -0.042032663 0.23724942
0001f0 13 0d d3 bb f3 94 fa 3d 37 fc 27 3e e8 85 00 bf
       -0.0064407676 0.12235441 0.16404806 -0.50204325
000200 5f bb 1d bf ec 3e 81 bd 3b ad ee bc 62 22 b7 be
       -0.6161403 -0.063108295 -0.029135337 -0.3576842
000210 a0 25 3a be 82 13 24 bf 64 41 95 3c 3e 83 b9 be
       -0.18178415 -0.64092267 0.018219657 -0.36232942
000220 e0 39 5a be c9 37 f8 bd a0 dd 1f bd 62 df 07 bd
       -0.2131114 -0.12120015 -0.039029717 -0.03317202
000230 3d 1d 8d be 8b 1a 0d 3d 4b 78 4d be eb c6 af be
       -0.2756137 0.03444914 -0.2006542 -0.3433145
000240 eb e9 32 bd 6b ba bb 3d c2 05 db 3d f5 4a 4c bf
       -0.043680113 0.09166416 0.106944576 -0.79801875
000250 23 99 22 be 27 17 d0 3c 4b 58 9f be 1c 9b ec 3d
       -0.1587873 0.025401665 -0.3112205 0.11553022
000260 e5 c7 03 3e 75 54 0f 3e c1 2a 5c 3e 8b 90 9a bc
       0.12869222 0.13997062 0.21500684 -0.018867752
000270 cd 4a 2f be 9b 4f 23 3e 29 88 ab bd bc 78 ac bb
       -0.17118378 0.15948336 -0.0837558 -0.005263416
000280 7e 16 e6 be f0 99 a2 3d 2a f8 b7 3d 7d 87 63 be
       -0.44939035 0.079395175 0.089828804 -0.22219653
000290 d1 86 17 3e ef 69 a3 bd f3 7c 02 bf a5 90 a8 3d
       0.14797522 -0.079791896 -0.5097191 0.08230714
0002a0 6d 58 c8 be fe bf 2c 3e 85 9e d3 3d 80 a9 08 bf
       -0.39129964 0.16870114 0.103329696 -0.53383636
0002b0 53 eb cc bc 32 e7 77 bd 8e 50 b8 bd cc f7 a6 be
       -0.025014555 -0.06052322 -0.089997396 -0.3261093
0002c0 5e 71 69 3e c0 6a ed bd 31 19 2a be 25 f7 ba bc
       0.22797152 -0.115926266 -0.16611172 -0.022822926
0002d0 ef 8c b9 be 5b b3 08 3e 2f d4 03 bf de 1c 71 3e
       -0.36240336 0.13349669 -0.5149564 0.23546168
0002e0 ff 24 df 3c 8e 87 e9 3c 0d f8 33 bf 16 05 53 3d
       0.02723932 0.02850702 -0.7030037 0.051518522
0002f0 17 f2 42 3c d7 14 92 3d 10 28 9c 3d de 74 ba be
       0.011898539 0.07132881 0.07624829 -0.36417288
000300 1d a2 fb 3d 99 e8 9b be 46 65 87 bd 5e 4b 83 3e
       0.1228678 -0.30450895 -0.06611113 0.25643438
000310 6c 56 7c 3d e4 b6 b6 3d 53 da f8 be da 27 3c bb
       0.061605856 0.08921602 -0.48604068 -0.0028710277
000320 f2 74 32 3e 59 1a f2 bd c5 56 b7 3c 4e 45 21 3e
       0.17427424 -0.11821432 0.022380242 0.15749094
000330 23 14 5b be 94 06 8d 3e ea 77 98 bd e7 57 9a bd
       -0.213944 0.2754408 -0.07444747 -0.07536297
000340 a6 ff 2d bf 94 f3 a3 bd 1f 25 c3 bc c4 86 02 bf
       -0.67968214 -0.08005443 -0.023821412 -0.50986886
000350 c6 54 0c be c2 db 7d be f4 e8 5d 3e d7 db 0f bf
       -0.13704214 -0.24790862 0.21670896 -0.56194824
000360 34 99 b3 be 6f ae 1f be 54 6f b4 3c 68 0d bd bd
       -0.35077822 -0.15593885 0.022025742 -0.09231073
000370 70 85 02 3e 79 6a 26 bf d8 9e e0 3d 76 2a 0c be
       0.12746215 -0.65006214 0.10967797 -0.13688073
000380 39 01 4b 3d 8a f4 a8 be 33 8e f9 be c2 47 bb 3e
       0.049561713 -0.32999068 -0.48741302 0.36578184
000390 81 01 49 be 14 0f ee bc 9e 69 6a 3e ec e7 55 3e
       -0.1962948 -0.029059924 0.22891852 0.20889252
0003a0 83 51 36 bf eb a6 12 3f 32 c2 b2 bd 6f 07 b1 3e
       -0.71218127 0.57285947 -0.08728446 0.34575984
0003b0 f9 dc 58 3e d5 69 8b 3e 97 8c 1e 3d c3 16 6d be
       0.21178044 0.2722918 0.038708296 -0.23153214
0003c0 5a 00 d7 3d 95 30 33 3d ba a9 3b 3e 8d 02 df 3e
       0.10498114 0.043747503 0.18326464 0.43556634
0003d0 fe a7 2e bd cb 89 b6 be fb 7e 57 bf 4e 7a fc bd
       -0.04264068 -0.35652003 -0.8417813 -0.12328015
0003e0 1d 80 06 bf 58 2e 48 3d 90 5d 88 be 88 c6 5f be
       -0.52539235 0.04887232 -0.26633883 -0.21853077
0003f0 6c bc fa 3d 5a 8f 17 3e 34 76 ee be 8f 97 31 bd
       0.1224297 0.14800778 -0.46574557 -0.04335743

2.bias f4 [3]
000000 cd 00 2a 3e 53 c0 17 3d db f7 a6 be
       0.16601868 0.03704865 -0.32610974
