models/entailment.model (torch, 163347 bytes, 4 tensors)

0.weight f4 [100, 400]
00000000: 1272 51bf 481a 833f abbc 7b3e 3fae ca3e
00000010: 993a 863f 99f6 cb3d dd14 2d3f 81ee 0d3f
00000020: eaf1 7abe caa3 113f e552 3c3f f827 bd3e
00000030: 208a e33e 3cc6 8abf 1252 46bf a9f7 19bf
00000040: cbed 1cbf 6756 c33e 24dc c1bd f3bc aebf
00000050: 46d4 063f 6306 35be a1bf c53e 974a 273e
00000060: ce68 81bf 7650 b0be cc4e b7be 0c9a 51be
00000070: 2d43 413e 9f5e ae3d 3ef8 76bf 8924 853f
00000080: 6d91 c23d d4b2 ca3e f835 41bf d649 923f
00000090: 93f6 e0bd 5af7 613e 78f8 16bd c477 94be
000000a0: 9818 153f 33c4 21bf 04d0 563f 6d83 02bf
000000b0: 5507 0d3e 1bb7 19bf d736 9ebe b719 24bf
000000c0: 5591 e8bc 7836 2b3e 457e c33e 75a7 42be
000000d0: 5847 873e e889 afbe cea4 303e 8ff8 33be
000000e0: b091 053f a10b fbbd 6f83 413f 5d90 5c3f
000000f0: 3588 413e 604e b33e 83c5 3b3f 0455 00bd
00000100: 9e19 a7be 86e8 65bf f77c 193e c30f dc3e
00000110: a8c3 09bf 2e4e 9cbe 9123 c5bd 9bdd d23d
00000120: b8af fa3d de62 23bf 117e 87bd 847d 673e
00000130: 242f e7bc 03df 813f f469 ae3e fbe0 41bf
00000140: 12b5 20bf fefb eabe f6f9 22bf 84fc 243f
00000150: fe98 3640 359e 9dbe d4fe 483f 94ea 673f
00000160: 0489 253f 5237 b03e 9031 c2bf 7771 6d3e
00000170: d909 913f 77fa e03d 18ca ffbc 3bc4 d5bf
00000180: 68d6 6cbe b03e 393f 554c a9bf 2636 78be
00000190: 2e3d e0be d9ca 823d 87a9 83bf f664 8f3e
000001a0: 937d c7bd 007b 473e bb09 a9bd 769e 523e
000001b0: 0c6c ae3c b32a 923d d8c9 3d3f 4b9d 7dbd
000001c0: b731 853e d5d3 7b3e 96b9 e7bc 9380 703d
000001d0: 2633 873e 3f69 7d3e 088d 193e aec5 1bbf
000001e0: c51b c2bf e868 aa3d 4a94 593f 0a09 b4be
000001f0: 3a73 8d3f 5bc4 d43e 34a6 d0bf 6e5d 39bf
00000200: d8ca 5ebe bfe2 5c3f bad8 cb3e 9e53 563f
00000210: cd69 a7be 5a1b b93e 1ba1 30be e42f 6b3f
00000220: 4602 17bf c65f a23f 20a8 b13d 114e 6bbd
00000230: f7f3 383f d643 dc3e 6a4a 6abf a246 c0bf
00000240: a9ad 1cbe 36bc d93f 5c7a 503f d3d0 a83e
00000250: 3a38 823e a09b 153f c0e8 673e 2678 04bf
00000260: 30f3 6d3e 045a 2a3f 6fce 943e f300 10be
00000270: 31bc 7cbf cd7e d0be e0f1 6b3f 4e23 2ebf
00000280: 64c7 5e3e e01f 173f b1b5 fa3d fa74 063f
00000290: 81ce d53e 36ae a73e f9a1 703e a81d 2540
000002a0: ad32 903d dd9b a1be 1e73 12bf 8107 1e3d
000002b0: f65d bb3e df5a d4bf f0d3 f9be 0552 383e
000002c0: 7f1e 823e aac8 633f 8ccc db3e 2f5f a63f
000002d0: 6c03 42bd a5f6 863f 64fa 63be bbb3 b33d
000002e0: 8af1 ac3e f278 7d3e 56e2 c73d 3453 b93d
000002f0: 1587 703e f254 813f a0c0 213f 2049 413e
00000300: 42d7 84bf b936 e0bc 78ab 7fbd 0bde 7a3e
00000310: 7493 a43f 2eaf e3bd ea2a 50bf 10df 2cbe
00000320: 2049 b13f dd80 77be aa91 1cbf 9e6a 49c0
00000330: 7812 c93f c39b 08bf 95ca cdbe 7490 95be
00000340: 5ba2 b23f 4646 c43f 9935 253f 0625 ec3f
00000350: 5bd3 e43e 6cf3 e13f 58a8 26c0 9ddf 583e
00000360: b8d4 e9bd 7e0b 0f3e d638 c7bd 7da3 26bf
00000370: 53d4 fe3f 27fe 86be ae08 923f 2132 a6bf
00000380: cdc2 3e3f 55a2 2e3f 3a05 5d3d e71b e53e
00000390: 78d6 bbbf 1440 0d3f ffa4 aebc 040c 763e
000003a0: 563a 783d df32 49bf 0981 72bf 977a a7bd
000003b0: c158 8f3e 19a4 213f 00ba 14bf 5ce3 8a3a
000003c0: 8c23 a23f 53b4 703f 8c30 29bd 58c4 36c0
000003d0: dcb7 113f f797 b43e 1dfd d7bf f211 31bf
000003e0: a5ce f03f 73d2 48c0 c224 a9bf 0441 88bf
000003f0: 8a1e 35be b696 c0bf 9b56 0a3f cedc 8cbe
-0.8181468 1.0242395 0.2458369 0.39586064 1.0486633 0.09959144 0.6760996 0.55442053
-0.24506345 0.5689055 0.73563987 0.36944556 0.4444132 -1.0841746 -0.7746898 -0.60143524
-0.61300343 0.38151857 -0.094658166 -1.3651413 0.52667654 -0.17678218 0.38622764 0.16337048
-1.0110109 -0.34436387 -0.35802305 -0.2046892 0.18873282 0.08514141 -0.9647254 1.0401775
0.09500394 0.3958956 -0.75472975 1.1428783 -0.1098453 0.22067013 -0.036858052 -0.28997624
0.5824065 -0.6319 0.83911157 -0.5098179 0.13772328 -0.6004502 -0.30901214 -0.6410174
-0.028389612 0.16719997 0.38182274 -0.19009192 0.26421618 -0.34284902 0.17250368 -0.17575286
0.52175426 -0.122580774 0.75591177 0.8615778 0.18899615 0.35020733 0.73348254 -0.031331077
-0.32636732 -0.8980793 0.14989077 0.42980775 -0.5381417 -0.30528396 -0.096259244 0.10296174
0.12240547 -0.63822734 -0.06615842 0.22606474 -0.02822072 1.0146183 0.3406521 -0.7573392
-0.6277629 -0.4589538 -0.6366266 0.6444781 2.853088 -0.30784765 0.78513837 0.9059231
0.64662194 0.34417206 -1.5171375 0.23187815 1.133113 0.109852724 -0.031224295 -1.670051
-0.23128664 0.7236128 -1.322642 -0.24239406 -0.43796676 0.06386346 -1.0286111 0.28006715
-0.09740748 0.19480515 -0.08253809 0.2056826 0.021291755 0.071370505 0.74136114 -0.061917584
0.26014492 0.24592526 -0.028286736 0.058716368 0.2640621 0.2474718 0.14995205 -0.6084851
-1.5164725 0.083207905 0.84991896 -0.35163146 1.1050789 0.41556057 -1.6300721 -0.7240819
-0.21757066 0.8628349 0.39813787 0.8372134 -0.32697907 0.3615368 -0.17248957 0.9186995
-0.58987844 1.2685478 0.086746454 -0.057447497 0.7224726 0.43020505 -0.91519797 -1.5021555
-0.15300621 1.7010562 0.81436706 0.3297182 0.25433522 0.5844059 0.22647381 -0.5174583
0.232373 0.665436 0.29063746 -0.14062862 -0.9872466 -0.4072174 0.92165947 -0.6802262
0.21755749 0.5903301 0.12241686 0.5252224 0.41759112 0.327501 0.23499288 2.579935
0.07040916 -0.31564227 -0.57206905 0.038581375 0.36595124 -1.6590232 -0.48794508 0.18000038
0.25413892 0.88978064 0.42929494 1.2997798 -0.047366545 1.054402 -0.22263485 0.08774515
0.3377803 0.24753168 0.09759967 0.09049073 0.2348903 1.0104048 0.6318455 0.18875551
-1.0378191 -0.027369844 -0.062419385 0.24498765 1.2857499 -0.11117397 -0.8131548 -0.16881967
1.3850441 -0.24170251 -0.61159766 -3.1471324 1.5708761 -0.53362674 -0.4019362 -0.2921177
1.3955797 1.5333946 0.6453491 1.8448799 0.446925 1.7652411 -2.604025 0.21179052
-0.11417526 0.13969228 -0.097276375 -0.65093213 1.9908546 -0.26365778 1.1408899 -1.2984048
0.7451599 0.6821645 0.053960063 0.4474785 -1.4674826 0.551759 -0.02131891 0.24028021
0.06060251 -0.7859325 -0.9472814 -0.08177679 0.279974 0.6314102 -0.58096313 0.0010596323
1.2667098 0.9402515 -0.041306064 -2.8557339 0.5692117 0.3527219 -1.6874119 -0.6916801
1.8813063 -3.1378448 -1.3214343 -1.0644841 -0.17687431 -1.5045993 0.540384 -0.2751221

0.bias f4 [100]
00000000: 7c73 4f3e 643d 493f ee3f 38bf f6f8 b8be
00000010: 2f8b 45bf 0ae0 5ebe 1baf 04bd 557a febe
00000020: c054 94be e5c2 d6bd 1b93 06be 4f4f 65be
00000030: 1831 ad3e 6ac0 0c3f fc74 08bf 8587 ffbe
00000040: 3f2f 8fbe 5b93 533e 8fb2 43bf e47b a1bd
00000050: 6f29 0a3e 52d6 043d bd6b 5ebf deb9 1c3e
00000060: 2e67 a53e f82b f9bd 0d8e 803e cb96 34bf
00000070: 35f3 22bf 04a0 c43d cef3 e5be bf53 45bf
00000080: 0cef 0ebe f663 b23d f93a 53be f81c b2bd
00000090: 30f5 423f 4fd2 55be b231 3abd a1ea 3d3f
000000a0: 6dfd a4bd dfc0 ad3c 4488 9bbe b87b 56bd
000000b0: 18f2 9e3e 3f85 4d3f 4aca e53b 8a16 3fbd
000000c0: 3c6b f2be 2bad f0be be06 e9be b815 573b
000000d0: d5d0 d73e 9c35 d8be c638 3c3e fd85 7dbd
000000e0: 147d 8b3b f9eb 11bd 6486 27bd 3cee 1bbe
000000f0: 4a8e 493c b266 1fbd cd47 65bd 4c8b 25bd
00000100: c24c f83c 8a92 8ebd ffec 04bd 01d6 7c3d
00000110: f5c2 90bd 3ce8 a13e a8d5 02bf c662 4a3f
00000120: 0ebb 82be 5811 a13e d045 ecba fa4c 5cbd
00000130: 17ee 39bf 2ce8 573c e45f 6ebe c290 323f
00000140: 9161 52bf 4c2b e43e 97aa 59bf 5145 c4be
00000150: 2e96 35bf 5383 a13d 6363 0fbf 3120 993e
00000160: 6c1c 8e3c f68a 87bf ec4a dbbc 99a1 c2be
00000170: 536b 8ebc 8d78 233f 4ec5 fbbc c58f 463f
00000180: 8424 5fbd 7cb6 2d3f 5d10 81be 6adc 80bc
0.20258898 0.786093 -0.7197255 -0.36127442 -0.771655 -0.21765152 -0.032393556 -0.49702707
-0.2897091 -0.10486392 -0.13142054 -0.22393535 0.33826518 0.549811 -0.53303504 -0.4990808
-0.27965733 0.2066168 -0.76444334 -0.078849584 0.13492368 0.032430954 -0.86883146 0.15305278
0.32305282 -0.121665895 0.25108376 -0.7054259 -0.63652354 0.09600833 -0.4491257 -0.7708091
-0.13958377 0.08710472 -0.20627965 -0.086969316 0.76155376 -0.20881008 -0.04545755 0.7418614
-0.0805615 0.021210132 -0.303774 -0.05236408 0.31044078 0.8028144 0.00701264 -0.046652354
-0.47347438 -0.47007117 -0.45512956 0.0032819342 0.42151514 -0.422284 0.18381032 -0.06189536
0.004256854 -0.03562543 -0.04089965 -0.15227598 0.012301991 -0.038916297 -0.055976678 -0.040416047
0.030310038 -0.06961544 -0.03245258 0.061727528 -0.07068435 0.31622493 -0.51107264 0.79056966
-0.25533336 0.31458545 -0.0018026177 -0.053784348 -0.7262892 0.013177913 -0.23278767 0.6975213
-0.82180125 0.44564283 -0.85025924 -0.38334134 -0.7093228 0.07886376 -0.5601103 0.29907373
0.017347537 -1.0589283 -0.026769124 -0.38013914 -0.01738516 0.6385582 -0.03073373 0.77563125
-0.054478183 0.67856574 -0.25207797 -0.015730102

2.weight f4 [3, 100]
00000000: 4e16 d83e 175f cf3f 2ce6 e6bf 2216 d2bf
00000010: 8b5a eabf 5a2a cd3d c1fd 5b3d 8407 7ebe
00000020: 0030 b2bf 794e 773f bf1a 7fbc dea4 fabf
00000030: 4985 a4be f55a b03f 6dd8 683e b201 3bbe
00000040: 3abe 6bbe dce8 ed3f abac 5bbf 0c2d fb3d
00000050: 8cee 583f 3254 b7bd f083 03c0 38e0 2c3f
00000060: caa4 b83f b41d b3bf be15 aa3e 7c9d afbf
00000070: 1ce4 9dbe 5dee 973e f9f2 62bf a462 25bf
00000080: 5ce3 713e 07fb 243f 6265 c0be 496f 0cc0
00000090: bc1d bf3f 0f65 84be e24b 583d 0620 a53e
000000a0: 7a4a cabe c186 193f ab43 d9bf 6004 24bd
000000b0: 8236 0f3e c1e7 543f 60a1 4e3d 0044 20bc
000000c0: af5e dfbf d165 02c0 a25e aabe 9fb9 883c
000000d0: c5a9 0d3f e2ea 22be 0421 a83f c108 a73d
000000e0: cf95 ae3b 9c25 51bd 388a 953d 3da9 c5bf
000000f0: bbe4 05bf 4ec1 5f3d 7a42 52bb dbfc e43c
00000100: d097 d93c ce14 9e3d 39e8 abbd 2ac4 8dbe
00000110: 7598 1dbd 95f7 dc3e 37c2 c1bf 95c8 9a3f
00000120: ac13 523e 64bf a83f 95f7 9dbc f728 433c
00000130: 902c 15bf 9bac 503e 331e 03c0 c667 ed3e
00000140: 962b dbbf e94f c13e c7eb b0bf 2271 94be
00000150: 4134 b33d 1ce0 2b3e a600 62bf e436 bb3e
00000160: 1d50 d3bd 18cc c0bf 0206 3f3d e596 dbbf
00000170: 205f 5e3e ab3d ec3e 686d cd3b 9f41 3340
00000180: ab21 c3bc ee64 013f f92f 613e ca47 493d
00000190: d5c7 c7bf cbf9 efbf a7cd 28bd f03b 9d3f
000001a0: 7323 b03d 2c5c bb3e f884 a23d 8fca 433d
000001b0: 3d9b 4fbf 2d4b 50bf d23f f63d 3954 3abf
000001c0: 6e04 afbf e934 15bf cdb2 ff3e 5407 33bf
000001d0: 4055 febc 3096 95bf 568f ac3e db02 b63d
000001e0: 07a4 153e cbf9 29bd 3c3c bb3f 2ff1 86bf
000001f0: 28c1 b4bf efe7 b9bf e562 f93d 24bb f8be
00000200: d8da 3e3f aacc 34be bbc3 8a3f a5ac 093f
00000210: 5450 093f 0f9a 1bc0 a543 85bf 800f 07bf
00000220: cd21 6cbf c4b3 583b 3779 30bd 78a1 d2bf
00000230: 226a 1f3e 079c 303f 5b08 d1be c443 273d
00000240: 38c7 203e d89f 91bd 9e55 913c 1f8e 963b
00000250: 4469 b83c e953 9fbe f8e3 073e 3688 303d
00000260: 9aac ed3d ad24 b43d 38f5 5ebf fb1d 68bd
00000270: b686 60bd 1d5e 71bd b7a6 063d ca79 aabe
00000280: c305 41bf 60ef 933d e954 823c bf79 30be
00000290: 3aaa 94bd 4719 bcbf ceea 533d 61a6 203f
000002a0: 91ba aebc 6233 debf 1593 3bbf fd17 083f
000002b0: 1701 a33e 0ad0 08bf 4bb9 42bd a9a3 0b3d
000002c0: 9b6c 623f d141 033f 1cc4 6abd e0cc c0bf
000002d0: bf75 a13e c6d0 05c0 94cc 583e e434 2b3c
000002e0: 0920 963f 9e0b c33d cec0 9d3f c5f4 003f
000002f0: 70de acbd 82b3 ec3e 91a2 62bd 8b8d c83f
00000300: 9054 7fbf 45ee be3e 4593 bcb9 0fc9 fdbf
00000310: 8710 a23d d118 c1bf 1cf2 cf3e e69e 03bd
00000320: 92ee 5c3f ed1b 3d3e afdd 733f fafb 5cbe
00000330: ef21 213e d50c 30bf 629b d4bc b5ae 023c
00000340: 2831 a23f fcf3 e0be 20ca 0abe b931 8b3f
00000350: 3c00 c53f 3ee5 2ac0 df9b 0fbf 9d59 623f
00000360: e7c5 e93d d980 a0bf 6afc 4a3e ab52 97bd
00000370: b76e 03c0 2b54 0e3d aafb e13e d3c3 c83e
00000380: 54ef 063d 339d df3f 3cea debf fdd5 d63f
00000390: a7dd 1ebf 64ab 5cbe ad53 3dbf e8b2 a8bd
000003a0: c22b 06c0 0421 5f3f c52c 8d3f 70f6 873f
000003b0: c831 bcbf e044 c43d 1cbf 813c 1fc2 9b3f
000003c0: c32c b43e 28e2 07c0 81d1 7f3f c5f7 2cbd
000003d0: b3dd 46bf f76e e8bf 9715 83bd 088b 26bc
000003e0: f993 2b3f 0acb ea3f 6f60 73bb 8976 053c
000003f0: 6783 f0bf de02 413d 3810 01bf df9b 75bd
0.42204517 1.6200894 -1.8038993 -1.6413004 -1.8308882 0.100178435 0.053708795 -0.24807554
-1.3920898 0.96604115 -0.015570342 -1.9581563 -0.32132939 1.3777758 0.2273881 -0.18262365
-0.23021784 1.8586688 -0.85810345 0.122644514 0.84738994 -0.08951606 -2.0549278 0.6752963
1.442529 -1.399344 0.33219713 -1.3719935 -0.30838096 0.29674044 -0.88651997 -0.6460364
0.23621887 0.6444554 -0.3757735 -2.1942923 1.4930949 -0.25858352 0.052806742 0.32250994
-0.39509946 0.59971243 -1.6973776 -0.040043235 0.13985637 0.8316613 0.050446868 -0.009781837
-1.745077 -2.0374644 -0.33275324 0.016690074 0.5533717 -0.15909913 1.3135076 0.081559666
0.005327917 -0.051061258 0.07301754 -1.5442272 -0.5230214 0.05462771 -0.003208308 0.027952602
0.026561648 0.07718812 -0.08393902 -0.27688724 -0.038475472 0.4315764 -1.5137395 1.2092463
0.20515317 1.3183408 -0.019283095 0.011911622 -0.5827112 0.20378344 -2.0487182 0.46368235
-1.7122676 0.3775628 -1.3821954 -0.28992563 0.08750201 0.1678471 -0.8828224 0.36565316
-0.10318015 -1.5062284 0.04663659 -1.7155424 0.21715975 0.461408 0.0062691458 2.8008802
-0.023819765 0.5054463 0.21990956 0.04914073 -1.5607859 -1.8748106 -0.04121175 1.2283916
0.086005114 0.3659376 0.07935518 0.047800597 -0.8109625 -0.8136471 0.120238915 -0.72784764
-1.3673227 -0.5828386 0.49941102 -0.69933057 -0.03104651 -1.1686459 0.33703107 0.088872634
0.14613353 -0.041497987 1.4627757 -1.0542353 -1.4121447 -1.4523906 0.12177066 -0.48580277
0.7455268 -0.17656198 1.0840982 0.5377906 0.53638196 -2.431278 -1.0411268 -0.52758026
-0.92239076 0.0033066133 -0.04308435 -1.6455526 0.1556783 0.6898808 -0.40826687 0.04083611
0.15700996 -0.07110566 0.01774102 0.004594579 0.022511132 -0.31118706 0.13270557 0.04309865
0.11605187 0.08796058 -0.87092924 -0.056669217 -0.05481597 -0.058927644 0.032873835 -0.33296043
-0.75399417 0.072233915 0.015909629 -0.17233942 -0.07259031 -1.4695214 0.0517376 0.62753874
-0.021329196 -1.7359431 -0.73271304 0.53161603 0.3183677 -0.5344244 -0.04753999 0.034091625
0.8844697 0.512723 -0.05731593 -1.5062523 0.31535146 -2.0908675 0.2117179 0.010449622
1.1728526 0.095237 1.2324464 0.5037349 -0.08440864 0.46230704 -0.055330817 1.5668195
-0.9973841 0.3729116 -0.0003596788 -1.9826983 0.079133086 -1.5085698 0.40614402 -0.03213396
0.8630153 0.18467684 0.9526014 -0.21580496 0.15735601 -0.6876958 -0.025952999 0.007976224
1.2671251 -0.43936145 -0.13553667 1.0874549 1.5390697 -2.6702418 -0.56097215 0.8841799
0.114147 -1.2539321 0.19822851 -0.073888145 -2.0536325 0.034748238 0.44137317 0.39211902
0.032943085 1.7469848 -1.7415233 1.6784054 -0.62056965 -0.21549755 -0.73955804 -0.08237249
-2.0964208 0.8715975 1.1029288 1.0622082 -1.4702692 0.09583449 0.015838198 1.2168616
0.351904 -2.1231785 0.9992905 -0.04222848 -0.77682036 -1.8158864 -0.06400602 -0.010164984
0.67022663 1.8343213 -0.0037136336 0.008145937 -1.8790101 0.047121875 -0.5041537 -0.059963103

2.bias f4 [3]
00000000: 9c06 2c3f 7b51 303e 2acc 8cbf
0.67197585 0.17218582 -1.0999806
