models/entailment.model (torch, 163347 bytes, 4 tensors)

0.weight f4 [100, 400]
0	0xbd15c519	-0.03656492
1	0xbc015ce3	-0.007895681
2	0xbc05115a	-0.008121813
3	0x3c8625e8	0.016375497
4	0xbc5064c4	-0.012719337
5	0xbd2bc58d	-0.041936446
6	0x3d0ecb88	0.03486207
7	0xbd4ba804	-0.04972078
8	0xbd53e4d7	-0.05173191
9	0xbcf966a3	-0.030444449
10	0xbcdb3ea0	-0.02676326
11	0xbd54e6c1	-0.051977877
12	0xbd896323	-0.06708362
13	0xbcbec6d7	-0.023288174
14	0x3c70b023	0.014690432
15	0xbcc9e5eb	-0.024645766
16	0xbc96d542	-0.018412236
17	0xbd75bd73	-0.059995126
18	0xbd46f0b5	-0.0485694
19	0x3d72db54	0.0592912
20	0xbcd175db	-0.025568893
21	0x3d856a29	0.06514389
22	0xbd740485	-0.059574623
23	0xbd5225ba	-0.05130551
24	0xbc70d031	-0.014698074
25	0xbd247551	-0.040150944
26	0xbd35cf5f	-0.044387218
27	0xbd1cea57	-0.03830942
28	0xbcdd8984	-0.027043112
29	0x3d0fc371	0.035098497
30	0xbd7cc1d1	-0.061708275
31	0x3c4a4107	0.012344605
32	0x3a005b86	0.00048964506
33	0x3c46932d	0.01212005
34	0xbd49b908	-0.049248725
35	0xbd9592d3	-0.07303395
36	0xbd2cc2ce	-0.042177968
37	0xbca28ca4	-0.019842453
38	0x3d17b403	0.037036907
39	0xbd7de7ab	-0.061988514
40	0xbd5cb584	-0.053884044
41	0xbd29ffd3	-0.04150374
42	0xbcc5863d	-0.024111861
43	0x3d07995e	0.033105247
44	0xbd45265b	-0.04813228
45	0x3c0abbc5	0.008467619
46	0xbd6b826f	-0.057497438
47	0xba84dd95	-0.0010136837
48	0xbbdfc43e	-0.006828814
49	0xbd8cea88	-0.06880671
50	0xbd792fec	-0.060836717
51	0xbc44d3af	-0.01201336
52	0x3a88ff5d	0.0010452081
53	0x3c189594	0.009313006
54	0xbc8a2b14	-0.016866244
55	0xbc9af2ea	-0.018914659
56	0x3d8a7096	0.06759755
57	0xbd9e6a24	-0.077350885
58	0xbd73b9a6	-0.05950322
59	0x3ca2ae3c	0.019858472
60	0xbcb59144	-0.022163995
61	0xba3925d1	-0.0007062825
62	0xbc32ff07	-0.010925061
63	0xbd9eedbd	-0.07760189
64	0xbd1eca9a	-0.038767435
65	0x3c1dced6	0.009631833
66	0xbd55a941	-0.052163366
67	0xbbf68e1d	-0.0075242654
68	0x3cc99340	0.024606347
69	0xbca6e84a	-0.020374436
70	0xbcd85243	-0.026406413
71	0xbc39d262	-0.011341663
72	0xbd8775fe	-0.06614302
73	0x3cdef0a1	0.02721435
74	0x3cbea34c	0.023271225
75	0xbd37c6fd	-0.044867504
76	0xbda19aa6	-0.07890825
77	0xbd569273	-0.05238576
78	0xbd38f0c0	-0.045151472
79	0xbd3a4af2	-0.04548163
80	0x3c5aaa3e	0.013346253
81	0x3c5f6685	0.013635282
82	0xbd460578	-0.04834506
83	0x3cf37c93	0.029722488
84	0xbd4a0b90	-0.049327433
85	0xbc2c33bb	-0.01051038
86	0xbbd41ac4	-0.0064729173
87	0x3d26aeaf	0.040693935
88	0xbc430096	-0.011901995
89	0xbd44f04f	-0.04808074
90	0xbd0f63b7	-0.035007205
91	0xbbe27d56	-0.006911914
92	0xbd0e233a	-0.034701563
93	0xbcd52c3c	-0.02602207
94	0xbd50ea8a	-0.051004924
95	0x3c041a81	0.00806296
96	0xbbaa37c7	-0.0051946375
97	0xbd15af37	-0.03654405
98	0xbd29512a	-0.04133717
99	0xbd92235a	-0.07135649
100	0xbc012051	-0.00788124
101	0x3ccd7379	0.025079476
102	0xbd173678	-0.03691718
103	0x3b1cfb36	0.0023953444
104	0xbcee8a97	-0.02911882
105	0xbd1e1df0	-0.03860277
106	0x3ce1e92b	0.027577003
107	0xbd56f731	-0.052481834
108	0x3c30320e	0.0107541215
109	0x3c80fce7	0.015745593
110	0xbb049e6a	-0.0020236024
111	0xbd742e32	-0.059614368
112	0xbccb27f9	-0.024799334
113	0x3c8578de	0.016292986
114	0x3cc3bab9	0.023892747
115	0xbc5eb796	-0.013593575
116	0x3c06ba44	0.00822312
117	0xbca273c4	-0.019830592
118	0xbd180e60	-0.037123084
119	0xbda01bfd	-0.07817838
120	0xbd43f323	-0.047839295
121	0xbd8fe47e	-0.07026003
122	0xbd637591	-0.055532042
123	0xbc6d15c0	-0.014470518
124	0xbd4238e8	-0.04741755
125	0xbcaffbc1	-0.02148235
126	0x3c193122	0.009350093
127	0xbd117a05	-0.035516758
128	0xbd79e5ca	-0.06101016
129	0xbcea0644	-0.02856744
130	0x3ab899d8	0.0014083935
131	0x3b668fd7	0.003518095
132	0x3d169553	0.0367635
133	0x3bdfd3e7	0.0068306806
134	0xbd34691e	-0.04404556
135	0x3beb1d06	0.0071750907
136	0x3bf4f79c	0.0074758064
137	0x3cd093a6	0.02546103
138	0xbc821fda	-0.015884329
139	0x3be82661	0.0070846532
140	0xbd35ef7e	-0.04441785
141	0x3c73f6cf	0.014890387
142	0xbcc18ff6	-0.023628216
143	0x3bcd1d9b	0.0062596328
144	0xbcd8bfe0	-0.02645868
145	0xbd546171	-0.05185074
146	0xbd8e9185	-0.069613494
147	0x3b7dee60	0.003874682
148	0x3b970629	0.0046088886
149	0xbce8a4cc	-0.028398894
150	0xbd339558	-0.043843597
151	0xbd9924aa	-0.07477696
152	0xbd4deea1	-0.050276402
153	0xbcc2e452	-0.023790512
154	0x3ce3149a	0.027719785
155	0xbce8491f	-0.02835518
156	0xbd2401ad	-0.04004066
157	0xbd9494f3	-0.07254972
158	0xbb647014	-0.0034856843
159	0xbcc763f1	-0.024339648
160	0x3cbd4f89	0.023109214
161	0xbd1b3401	-0.03789139
162	0xbcd9c657	-0.026583834
163	0xbd746d9a	-0.059674837
164	0xbd9382ad	-0.07202659
165	0xbcd4912f	-0.025948135
166	0xbd1f3ea2	-0.03887809
167	0x3c56e4ed	0.013116104
168	0xbd22e535	-0.03976937
169	0xbd466104	-0.048432365
170	0xbbb7175b	-0.005587501
171	0xbc05f286	-0.008175498
172	0xbd98231e	-0.07428573
173	0xbdb4f927	-0.088365845
174	0xbb8e3142	-0.004339368
175	0x3d26f6c9	0.040762696
176	0x3b759d3e	0.0037477757
177	0x3a5be314	0.0008388024
178	0xbc07ec13	-0.008296031
179	0xbd43eb7b	-0.047831994
180	0xbbc21dcd	-0.0059239627
181	0xbce2afc9	-0.027671712
182	0xbd154c02	-0.03644944
183	0xbcdc055d	-0.026858026
184	0xbd9083a2	-0.07056357
185	0xbd607940	-0.054803133
186	0x3c2c8c2e	0.010531468
187	0x3c64f1dc	0.013973679
188	0xbdaf0740	-0.08546305
189	0x3b848ce4	0.004045116
190	0xbbc7a812	-0.0060930336
191	0xbd7a5977	-0.061120477
192	0x3b779c44	0.003778235
193	0x3cb0a13a	0.021561254
194	0xbd88f52b	-0.06687387
195	0xbd82ac78	-0.06380552
196	0xbd95cc9f	-0.07314419
197	0xbcf7b3a4	-0.030237027
198	0xbd0d24ae	-0.03445881
199	0xbd99d749	-0.075117655
200	0xbce8517c	-0.028359167
201	0xbc072795	-0.008249183
202	0xbd0ba1db	-0.034089904
203	0x3d91b226	0.07114057
204	0xbd996656	-0.07490222
205	0x3c89bf80	0.016814947
206	0xbc80b130	-0.01570949
207	0xbd11aded	-0.03556626
208	0xbd3b8c3e	-0.045788042
209	0xbc1e6b6a	-0.009669164
210	0xbbc3efb0	-0.0059795007
211	0xbc582cf1	-0.013194309
212	0xbd4f8e91	-0.05067307
213	0xbd8063c2	-0.06269027
214	0xbd864b6e	-0.06557356
215	0xbc1e0783	-0.009645346
216	0xbda298a0	-0.07939267
217	0xbca8363d	-0.020533675
218	0x3c6503d2	0.013977962
219	0x3bdf19c3	0.006808491
220	0xbd9dc191	-0.077029355
221	0xbd75325e	-0.059862487
222	0xbd953f0d	-0.072874166
223	0x3a9a267b	0.0011760736
224	0x3d26494c	0.040597245
225	0xbd5435ab	-0.051808994
226	0xbdab7d68	-0.08373529
227	0x3c018dba	0.007907325
228	0xbcff45f5	-0.031161288
229	0xbda470a7	-0.08029299
230	0x3c005e6f	0.007835015
231	0xbd84c39f	-0.06482624
232	0xbce1706d	-0.02751943
233	0xba689a92	-0.00088731304
234	0xbc7aafdf	-0.01530072
235	0xbcfa6734	-0.03056679
236	0xbd98b84f	-0.07457029
237	0xbd44e212	-0.04806716
238	0xbd26b1d1	-0.040696923
239	0x3c25b34f	0.010113551
240	0xbcee812a	-0.029114325
241	0xbd94bb72	-0.07262315
242	0xbcdae73d	-0.026721591
243	0xbc4f740f	-0.012661948
244	0xbd8f3de8	-0.069942296
245	0xbcc49e5f	-0.024001298
246	0xba43e2b0	-0.0007472439
247	0xbd77b1d5	-0.06047233
248	0xbc3e84d7	-0.011628351
249	0xbcb5de08	-0.0222006
250	0xbd478118	-0.048707098
251	0x3bf121d4	0.007358769
252	0xbd691661	-0.056906108
253	0xbc50368a	-0.012708316
254	0xbd255ee3	-0.040373694
255	0xbd5cdb24	-0.053919926

0.bias f4 [100]
0	0xbd26b867	-0.040703204
1	0x3e09fec9	0.13476099
2	0x3ec1d801	0.3786011
3	0x3dd72d87	0.105067305
4	0xbe1d7f5c	-0.15380615
5	0xbc2fba84	-0.010725621
6	0x3ea5658c	0.32304037
7	0x3e8a69c5	0.2703382
8	0xbd092a72	-0.033487745
9	0xbd22b955	-0.039727528
10	0x3ea38667	0.31938478
11	0xbcb7c686	-0.02243353
12	0xbec10c7d	-0.3770484
13	0xbf1c8108	-0.61134386
14	0x3ea1a3b6	0.31570214
15	0xbe440785	-0.19143493
16	0x3d87dcb9	0.066338964
17	0x3dc47792	0.09593119
18	0xbd1ef20a	-0.038805045
19	0xbe07f759	-0.1327795
20	0xbd11dda4	-0.035611764
21	0xbd2ee178	-0.042695493
22	0x3dcf310d	0.101167776
23	0xbea76b6d	-0.32699147
24	0xbee291a7	-0.4425175
25	0xbe99ec8c	-0.30063283
26	0xbea840a1	-0.32861808
27	0xbe8201ff	-0.25392148
28	0xbe5ed5d0	-0.2176125
29	0xbf025c2f	-0.5092191
30	0x3e39aa2f	0.18131326
31	0xbcf74e65	-0.030188749
32	0x3c9be771	0.019031258
33	0xbe18d7e2	-0.14926103
34	0xbe5f920a	-0.21833053
35	0xbe47b490	-0.19502473
36	0xbd5fb500	-0.054615974
37	0x3d82912d	0.06375346
38	0xbd2a388f	-0.041557845
39	0x3dda6e25	0.1066554
40	0x3eb1db80	0.34737778
41	0xbe32dd0f	-0.1746714
42	0x3c4d2818	0.012521766
43	0xbd731fc2	-0.05935646
44	0x3eb2a2e4	0.348899
45	0xbc1af9ab	-0.00945894
46	0xbed16c05	-0.40902725
47	0x3ec5d081	0.38635638
48	0x3e4c4402	0.19947818
49	0x3ea18028	0.31543088
50	0x3ce0854e	0.027407315
51	0xbdeb537b	-0.11490532
52	0xbcff9a6b	-0.031201562
53	0xbf000cfe	-0.50019825
54	0xbd946c84	-0.0724726
55	0xbe9bd3f5	-0.30435148
56	0x3918ad15	0.00014560328
57	0x3c8bd5f8	0.017069802
58	0xbe970a43	-0.29500017
59	0xbe251d28	-0.16124403
60	0x3ee2b6e7	0.44280168
61	0x3eddb9dd	0.43305865
62	0x3e97711e	0.2957849
63	0xbe33b6fc	-0.17550272
64	0xbe0c412a	-0.13696733
65	0x3e3179b6	0.17331585
66	0xbd1e9fc1	-0.038726572
67	0xbdbf624b	-0.0934492
68	0xbec9af68	-0.39391637
69	0xbd8949dc	-0.06703541
70	0xbed1064e	-0.40825123
71	0xbea2dacd	-0.31807557
72	0xbe89d7ee	-0.26922554
73	0x3ee5a753	0.4485422
74	0xbe3bb54b	-0.18330877
75	0xbc9ae084	-0.018905886
76	0x3caa4de1	0.020789089
77	0x3d82d2f7	0.063878946
78	0xbd76f6fb	-0.060294133
79	0xbd3f6dcd	-0.046735574
80	0x3d60b3bf	0.05485892
81	0xbe257ead	-0.16161604
82	0xbd9db4e9	-0.077005215
83	0x3f150a92	0.58219254
84	0x3d9b1ad2	0.07573475
85	0x3e93eaa8	0.28889966
86	0xbec7fbc8	-0.3905928
87	0xbf109ec7	-0.56492275
88	0xbe04fdae	-0.12987396
89	0xbe450d40	-0.19243336
90	0xbdaa4c2b	-0.08315309
91	0x3d24bb9a	0.040217973
92	0x3e93be0b	0.2885593
93	0x3e8c5cab	0.2741445
94	0xbbfd6d88	-0.0077340044
95	0xbe8ca00f	-0.27465865
96	0xbec21c94	-0.37912428
97	0xbd7ab296	-0.06120547
98	0x3ec857e2	0.3912955
99	0xbec1bd6e	-0.37839836

2.weight f4 [3, 100]
0	0xbc8e3df4	-0.017363526
1	0xbd5a2f43	-0.05326773
2	0x3ddcfaf3	0.10790052
3	0x3d6e2039	0.0581362
4	0x3d0d5649	0.034506116
5	0x3d63ee18	0.055646986
6	0x3e932e5c	0.28746307
7	0x3e772392	0.24134663
8	0x3d125f4a	0.035735406
9	0x3ba25775	0.0049542733
10	0x3f31f6ce	0.6951722
11	0x3cd509e6	0.026005697
12	0xbe3c745f	-0.18403767
13	0xbf4978fc	-0.7870023
14	0x3eaf0fc0	0.34191704
15	0xbeb27369	-0.34853676
16	0x3e273baa	0.16331354
17	0xbe07cff4	-0.13262922
18	0xbb77f178	-0.0037833136
19	0xbddfdb57	-0.10930508
20	0xbf099468	-0.53742075
21	0x3cc73ea9	0.02432187
22	0x3e2050eb	0.15655868
23	0xbda96658	-0.08271474
24	0xbe2dce4d	-0.16973229
25	0xbee4bcf3	-0.44675407
26	0xbeab70e3	-0.33484563
27	0xbf0a9e2f	-0.5414762
28	0xbdee679b	-0.11640855
29	0xbe18dfcc	-0.14929122
30	0x3f19b339	0.600391
31	0x3c797c3a	0.015227372
32	0x3dbb2bf1	0.091392405
33	0xbbc435a4	-0.00598784
34	0xbd291600	-0.041280746
35	0xbf9483be	-1.1602705
36	0xbef36613	-0.47538814
37	0x3dabe537	0.08393329
38	0xbc6ebbc9	-0.014571139
39	0x3e2d5708	0.16927731
40	0x3e30bdd1	0.17259909
41	0xbef474e0	-0.4774542
42	0x3d249199	0.040177915
43	0x3f47310c	0.77809215
44	0x3e363e1f	0.17797135
45	0xbd9a69b3	-0.07539692
46	0xbecd6d54	-0.40122473
47	0x3d0a63b5	0.033786494
48	0x3d9a0872	0.07521142
49	0x3de0834a	0.109625414
50	0xbd939955	-0.0720698
51	0x3d8c38ff	0.06846809
52	0x3d1b5488	0.037922412
53	0xbec9c022	-0.39404398
54	0xbe39dac5	-0.1814986
55	0xbec2040a	-0.37893707
56	0x3dba354c	0.09092197
57	0x3de7d4b0	0.11319864
58	0xbb896e0c	-0.004194027
59	0xbe9d19db	-0.3068379
60	0x3e444fe9	0.19171108
61	0x3ed0b87a	0.40765744
62	0x3fa7f287	1.3120888
63	0xbda5f86c	-0.08104023
64	0xbcc755bc	-0.024332874
65	0x3dfffaee	0.12499033
66	0x3b2b63fd	0.0026152127
67	0xbc733cf0	-0.014846072
68	0xbf4ebdba	-0.8075825
69	0x3d75f815	0.060051043
70	0xbd9fef9e	-0.07809375
71	0xbe4a4ee9	-0.19756664
72	0xbde09fad	-0.10967956
73	0x3f7f6c36	0.9977449
74	0xbed476b6	-0.4149682
75	0x3d82a024	0.06378201
76	0x3d9ba31a	0.075994685
77	0x3d11b2ee	0.03557103
78	0xbdd66b95	-0.104697384
79	0x3d2350c8	0.03987196
80	0x3d3abfae	0.045592956
81	0xbf1c6364	-0.6108916
82	0xbec38e77	-0.3819463
83	0x3ed22f7b	0.4105185
84	0x3ddada52	0.106861725
85	0x3dff973c	0.124800175
86	0xbf1f87e8	-0.6231675
87	0xbf2c58a7	-0.6732277
88	0xbef10a7d	-0.47078314
89	0xbe5b907f	-0.2144184
90	0x3e05211c	0.13000911
91	0x3cb0e852	0.021595154
92	0x3e0a47e8	0.13503993
93	0x3dedbaaa	0.11607869
94	0x3dc3b1a4	0.09555367
95	0xbe927dab	-0.28611502
96	0xbf580777	-0.8438639
97	0x3d954697	0.072888546
98	0x3f14ed22	0.58174336
99	0xbe59aecd	-0.21258087
100	0x3db3d81b	0.08781453
101	0xbe3cffc7	-0.18456946
102	0x3e274d4f	0.16338085
103	0xbe90f4b0	-0.28311682
104	0x3d737c78	0.059444875
105	0x3e038b5e	0.12846133
106	0xbf66d7e6	-0.90173185
107	0xbf1e1200	-0.61746216
108	0xbde695c7	-0.112590365
109	0x3cfd98e7	0.030956699
110	0xbf1467e6	-0.57971036
111	0xbda97daf	-0.08275925
112	0x3e1a5bc7	0.15074073
113	0x3dd53548	0.10410553
114	0xbe3462c0	-0.17615795
115	0xbeb034af	-0.34415194
116	0x3e1fdb02	0.15610889
117	0xbe6f5b09	-0.23374571
118	0x3c96e2eb	0.01841875
119	0x3e5bfc31	0.21482922
120	0xbed4977a	-0.41521817
121	0xbc0078ed	-0.007841331
122	0xbd919667	-0.07108765
123	0x3e1ebcf4	0.15501767
124	0x3ded1d19	0.115778156
125	0x3e05a70a	0.13052002
126	0x3e0c6a46	0.13712415
127	0x3da98860	0.082779646
128	0x3e22de0f	0.15905021
129	0x3d96b0ae	0.07357918
130	0xbecdaae2	-0.40169436
131	0x3e2cdbae	0.16880676
132	0x3d4f9b5e	0.05068528
133	0x3c0b2a10	0.008493915
134	0x3e357bc5	0.17722996
135	0xbece6118	-0.40308452
136	0xbf02dd0f	-0.5111856
137	0x3e0a08b5	0.13479884
138	0xbd8b0ca3	-0.0678952
139	0x3cf7ade7	0.03023429
140	0x3e28da5f	0.16489552
141	0xbec4e08e	-0.38452572
142	0xbcfcebce	-0.03087416
143	0xbef9335e	-0.48672003
144	0x3c4cdad5	0.0125033455
145	0xbceeff0e	-0.029174354
146	0xbde6a200	-0.11261368
147	0xbed923b4	-0.42410052
148	0x3e384bb1	0.17997624
149	0x3dacd98e	0.08439933
150	0xbdb5afa2	-0.0887139
151	0x3e945abe	0.2897548
152	0x3cccfacb	0.025021931
153	0x3d8243c9	0.06360585
154	0x3e6e05bf	0.2324438
155	0x3e0feb88	0.14054692
156	0x3d9ecb91	0.07753671
157	0x3e535297	0.20636974
158	0x3d0c3122	0.034226544
159	0xbd883365	-0.06650428
160	0xbead280d	-0.3381962
161	0xbed1327e	-0.40858835
162	0xbf86650d	-1.0499588
163	0x3c2cd221	0.0105481455
164	0xbe5f8308	-0.21827328
165	0x3d1c8fc1	0.038223032
166	0xbc85dbc7	-0.01634015
167	0xbb64de09	-0.0034922382
168	0x3cbb3849	0.022853987
169	0x3da64062	0.08117749
170	0xbd81447e	-0.06311892
171	0xbca03dee	-0.01956078
172	0x3cdabd6f	0.026701657
173	0xbf3c858f	-0.73641294
174	0xbd6f691b	-0.058449846
175	0xbb82a94f	-0.0039874683
176	0x3e67d451	0.22639586
177	0xbe6cd3f9	-0.23127736
178	0xbd7aa845	-0.06119563
179	0xbcb23374	-0.02175305
180	0x3e20efcc	0.15716475
181	0xbe4e2695	-0.20131905
182	0xbf1e3bcf	-0.6181001
183	0xbdd689cf	-0.10475504
184	0x3deaab06	0.114584014
185	0x3cd50f1c	0.026008181
186	0x3f267269	0.65018326
187	0x3e0bb251	0.13642241
188	0xbde41bb6	-0.11138098
189	0xbe5bef31	-0.21477963
190	0x3d10bef3	0.035338353
191	0x3e0c758b	0.13716714
192	0xbf28cbba	-0.6593586
193	0xbd991bdb	-0.07476016
194	0x3eb24004	0.34814465
195	0x3d49d3b5	0.049274165
196	0x3dd2281b	0.10261556
197	0x3e48af94	0.19598228
198	0xbe8737c6	-0.2640974
199	0x3d5f53e8	0.05452338
200	0xba924eb9	-0.0011162377
201	0x3e937065	0.28796688
202	0xbf575e95	-0.84128696
203	0x3e952c5e	0.29135412
204	0xbe06c0b9	-0.13159455
205	0xbd7e9e64	-0.06216277
206	0x3f3759f3	0.71621627
207	0x3edae556	0.42753094
208	0x3d97c173	0.074099444
209	0xbd5e8140	-0.05432248
210	0xbeaf83dc	-0.34280288
211	0xbb887ad9	-0.004165035
212	0x3cd33210	0.025780708
213	0x3e8bbb8f	0.27291533
214	0xbf06657c	-0.524986
215	0x3f0db2a9	0.5535074
216	0xbe896689	-0.2683604
217	0x3e8aaa39	0.27082995
218	0xbd84c300	-0.06482506
219	0xbe97e733	-0.29668579
220	0x3f1fb26c	0.62381625
221	0xbe0011ce	-0.12506792
222	0xbeb48231	-0.35255578
223	0xbd915b42	-0.07097484
224	0x3dd07086	0.10177712
225	0x3e56b942	0.20969108
226	0x3dfad3b4	0.122474104
227	0x3e01b250	0.12665677
228	0xbe7f48da	-0.24930134
229	0x3dd341c0	0.10315275
230	0x3dc63cc8	0.09679562
231	0xbe8dc87d	-0.27692023
232	0x3c9c460b	0.019076368
233	0xbbd860b2	-0.006603324
234	0xbe4f42be	-0.20240304
235	0x3f21eec7	0.6325497
236	0x3f2570e0	0.6462536
237	0xbe4a5923	-0.19760565
238	0xbc79f56e	-0.015256269
239	0xbe5d4717	-0.2160915
240	0xbf4cda13	-0.80020255
241	0x3eea7487	0.45792028
242	0xbd33faa0	-0.043940187
243	0xbe5e8599	-0.21730651
244	0xbf059060	-0.52173424
245	0x3c7120c5	0.0147172855
246	0x3e39272e	0.18081352
247	0x3edab69c	0.42717445
248	0xbed4f2ce	-0.41591495
249	0xbf1a675d	-0.6031397
250	0xbc12a48c	-0.008950364
251	0xbea2486d	-0.3169588
252	0x3d2efa12	0.042718954
253	0x3dc728cc	0.09724578
254	0xbd9bbbdf	-0.07604193
255	0x3df1dd15	0.11809746

2.bias f4 [3]
0	0x3ebcd0c9	0.3687804
1	0xbddeddba	-0.10882135
2	0xbead7acd	-0.33882752
